Data/fundamental_energy_phi_x_in_(-0.01,0.0))_B=0.032_Delta_s=0_Delta_S=0.2_lambda=0_points=20_g_xx=1_g_xy=0_g_yy=1_g_yx=0_theta=1.57_points=20_phi_angle=1.57_h=0.01_w_s=2.5_w_S=0.5_E_0=-6.npz (npz, 3600 bytes, 8 tensors)

Energy_phi f8 [20]
000000 a2 16 9f 21 cb b0 81 c0 ac df 3c 21 cb b0 81 c0
       -566.0991852215559 -566.0991844897994
000010 f4 73 f8 20 cb b0 81 c0 7b 89 d2 20 cb b0 81 c0
       -566.0991839800249 -566.0991836975294
000020 36 aa c7 20 cb b0 81 c0 6c 2c a1 20 cb b0 81 c0
       -566.0991836165256 -566.0991833297426
000030 47 b2 58 20 cb b0 81 c0 1d 0d 41 20 cb b0 81 c0
       -566.0991827897459 -566.0991826135756
000040 30 b1 2b 20 cb b0 81 c0 9a 77 1c 20 cb b0 81 c0
       -566.099182454438 -566.0991823410034
000050 1a 8e 0d 20 cb b0 81 c0 09 e7 c8 1f cb b0 81 c0
       -566.0991822298995 -566.0991817183977
000060 7e 6d a8 1f cb b0 81 c0 e7 ca 9d 1f cb b0 81 c0
       -566.0991814764418 -566.099181397204
000070 d7 7f 23 b9 d7 b0 81 c0 62 53 68 fd e9 b0 81 c0
       -566.105333592738 -566.1142528677412
000080 46 9f 68 6b f8 b0 81 c0 78 37 37 db 09 b1 81 c0
       -566.1212986157996 -566.1298126519969
000090 7b a6 c7 4d 1f b1 81 c0 4a 5a b1 0d 26 b1 81 c0
       -566.1402850721055 -566.1435808044127

phi_x_values f8 [20]
000000 7b 14 ae 47 e1 7a 84 bf 09 d0 da 5e f0 66 83 bf
       -0.01 -0.009473684210526316
000010 96 8b 07 76 ff 52 82 bf 24 47 34 8d 0e 3f 81 bf
       -0.008947368421052631 -0.008421052631578947
000020 b2 02 61 a4 1d 2b 80 bf 80 7c 1b 77 59 2e 7e bf
       -0.007894736842105263 -0.00736842105263158
000030 9b f3 74 a5 77 06 7c bf b6 6a ce d3 95 de 79 bf
       -0.006842105263157895 -0.00631578947368421
000040 d2 e1 27 02 b4 b6 77 bf ee 58 81 30 d2 8e 75 bf
       -0.005789473684210527 -0.005263157894736843
000050 09 d0 da 5e f0 66 73 bf 24 47 34 8d 0e 3f 71 bf
       -0.004736842105263158 -0.004210526315789474
000060 80 7c 1b 77 59 2e 6e bf b8 6a ce d3 95 de 69 bf
       -0.00368421052631579 -0.003157894736842106
000070 ee 58 81 30 d2 8e 65 bf 24 47 34 8d 0e 3f 61 bf
       -0.0026315789473684214 -0.002105263157894737
000080 b8 6a ce d3 95 de 59 bf 28 47 34 8d 0e 3f 51 bf
       -0.001578947368421053 -0.0010526315789473693
000090 30 47 34 8d 0e 3f 41 bf 00 00 00 00 00 00 00 00
       -0.0005263157894736855 0.0

w_s f8 []
000000 00 00 00 00 00 00 04 40
       2.5

B f8 []
000000 fc a9 f1 d2 4d 62 a0 3f
       0.032

h f8 []
000000 7b 14 ae 47 e1 7a 84 3f
       0.01

root_finding_tol f8 []
000000 3a 8c 30 e2 8e 79 45 3e
       1e-08

tol f8 []
000000 8d ed b5 a0 f7 c6 b0 3e
       1e-06

Delta_S f8 []
000000 9a 99 99 99 99 99 c9 3f
       0.2
