Data/fundamental_energy_phi_x_in_(-0.01,0.01))_B=0.016_Delta_s=0_Delta_S=0.2_lambda=0_points=20_g_xx=1_g_xy=0_g_yy=1_g_yx=0_theta=1.57_points=20_phi_angle=1.57_h=0.01_w_s=2.5_w_S=0.5_E_0=-6.npz (npz, 3600 bytes, 8 tensors)

Energy_phi f8 [20]
00000000: 46ce 99c4 ee63 75c0 f6cc dbd7 ef63 75c0
00000010: a86c 89cc f063 75c0 a441 a2a2 f163 75c0
00000020: e5ee 255a f263 75c0 3a24 14f3 f263 75c0
00000030: ed9e 6c6d f363 75c0 a429 2fc9 f363 75c0
00000040: 5a9c 5b06 f463 75c0 62dc f124 f463 75c0
00000050: 62dc f124 f463 75c0 5a9c 5b06 f463 75c0
00000060: a429 2fc9 f363 75c0 ed9e 6c6d f363 75c0
00000070: 3a24 14f3 f263 75c0 e5ee 255a f263 75c0
00000080: a441 a2a2 f163 75c0 a86c 89cc f063 75c0
00000090: f6cc dbd7 ef63 75c0 46ce 99c4 ee63 75c0
-342.2457929618871 -342.2460554681742 -342.2462888115065 -342.2464929903165 -342.2466680032506 -342.24681384914186 -342.2469305270195 -342.2470180361072
-342.24707637582253 -342.24710554577734 -342.24710554577734 -342.24707637582253 -342.2470180361072 -342.2469305270195 -342.24681384914186 -342.2466680032506
-342.2464929903165 -342.2462888115065 -342.2460554681742 -342.2457929618871

phi_x_values f8 [20]
00000000: 7b14 ae47 e17a 84bf 968b 0776 ff52 82bf
00000010: b202 61a4 1d2b 80bf 9bf3 74a5 7706 7cbf
00000020: d2e1 2702 b4b6 77bf 09d0 da5e f066 73bf
00000030: 807c 1b77 592e 6ebf ee58 8130 d28e 65bf
00000040: b86a ced3 95de 59bf 3047 348d 0e3f 41bf
00000050: 2047 348d 0e3f 413f b86a ced3 95de 593f
00000060: ec58 8130 d28e 653f 7c7c 1b77 592e 6e3f
00000070: 08d0 da5e f066 733f d2e1 2702 b4b6 773f
00000080: 9af3 74a5 7706 7c3f b102 61a4 1d2b 803f
00000090: 958b 0776 ff52 823f 7b14 ae47 e17a 843f
-0.01 -0.008947368421052631 -0.007894736842105263 -0.006842105263157895 -0.005789473684210527 -0.004736842105263158 -0.00368421052631579 -0.0026315789473684214
-0.001578947368421053 -0.0005263157894736855 0.0005263157894736838 0.001578947368421053 0.0026315789473684206 0.003684210526315788 0.004736842105263157 0.005789473684210527
0.006842105263157894 0.007894736842105262 0.00894736842105263 0.01

w_s f8 []
00000000: 0000 0000 0000 0440
2.5

B f8 []
00000000: fca9 f1d2 4d62 903f
0.016

h f8 []
00000000: 7b14 ae47 e17a 843f
0.01

root_finding_tol f8 []
00000000: 3a8c 30e2 8e79 453e
1e-08

tol f8 []
00000000: 8ded b5a0 f7c6 b03e
1e-06

Delta_S f8 []
00000000: 9a99 9999 9999 c93f
0.2
