Data/fundamental_energy_phi_x_in_(-0.01,0.01))_B=0.032_Delta_s=0_Delta_S=0.2_lambda=0_points=20_g_xx=1_g_xy=0_g_yy=1_g_yx=0_theta=1.57_points=20_phi_angle=1.57_h=0.01_w_s=2.5_w_S=0.5_E_0=-6_epsabs=0.1.npz (npz, 3852 bytes, 9 tensors)

Energy_phi f8 [20]
-342.31489820081543 -342.31501288970094 -342.31511398008297 -342.3152034689557 -342.3152848531939 -342.315364523373 -342.31544745739967 -342.3155327773702
-342.3155908612416 -342.3156199032717 -342.3156199032717 -342.3155908612416 -342.3155327773702 -342.31544745739967 -342.315364523373 -342.3152848531939
-342.3152034689557 -342.31511398008297 -342.31501288970094 -342.31489820081543
00000000: 2521 b2d2 0965 75c0 58b1 f44a 0a65 75c0
00000010: 80ef f4b4 0a65 75c0 02ec ca12 0b65 75c0
00000020: 4556 2168 0b65 75c0 4aa3 abbb 0b65 75c0
00000030: 3512 a212 0c65 75c0 f0f9 186c 0c65 75c0
00000040: 30bf 00a9 0c65 75c0 4ca8 74c7 0c65 75c0
00000050: 4ca8 74c7 0c65 75c0 30bf 00a9 0c65 75c0
00000060: f0f9 186c 0c65 75c0 3512 a212 0c65 75c0
00000070: 4aa3 abbb 0b65 75c0 4556 2168 0b65 75c0
00000080: 02ec ca12 0b65 75c0 80ef f4b4 0a65 75c0
00000090: 58b1 f44a 0a65 75c0 2521 b2d2 0965 75c0

phi_x_values f8 [20]
-0.01 -0.008947368421052631 -0.007894736842105263 -0.006842105263157895 -0.005789473684210527 -0.004736842105263158 -0.00368421052631579 -0.0026315789473684214
-0.001578947368421053 -0.0005263157894736855 0.0005263157894736838 0.001578947368421053 0.0026315789473684206 0.003684210526315788 0.004736842105263157 0.005789473684210527
0.006842105263157894 0.007894736842105262 0.00894736842105263 0.01
00000000: 7b14 ae47 e17a 84bf 968b 0776 ff52 82bf
00000010: b202 61a4 1d2b 80bf 9bf3 74a5 7706 7cbf
00000020: d2e1 2702 b4b6 77bf 09d0 da5e f066 73bf
00000030: 807c 1b77 592e 6ebf ee58 8130 d28e 65bf
00000040: b86a ced3 95de 59bf 3047 348d 0e3f 41bf
00000050: 2047 348d 0e3f 413f b86a ced3 95de 593f
00000060: ec58 8130 d28e 653f 7c7c 1b77 592e 6e3f
00000070: 08d0 da5e f066 733f d2e1 2702 b4b6 773f
00000080: 9af3 74a5 7706 7c3f b102 61a4 1d2b 803f
00000090: 958b 0776 ff52 823f 7b14 ae47 e17a 843f

w_s f8 []
2.5
00000000: 0000 0000 0000 0440

B f8 []
0.032
00000000: fca9 f1d2 4d62 a03f

h f8 []
0.01
00000000: 7b14 ae47 e17a 843f

root_finding_tol f8 []
1e-08
00000000: 3a8c 30e2 8e79 453e

tol f8 []
1e-06
00000000: 8ded b5a0 f7c6 b03e

Delta_S f8 []
0.2
00000000: 9a99 9999 9999 c93f

epsabs f8 []
0.1
00000000: 9a99 9999 9999 b93f
