Data/fundamental_energy_phi_x_in_(-0.01,0.01))_B=0.032_Delta_s=0_Delta_S=0.2_lambda=0_points=20_g_xx=1_g_xy=0_g_yy=1_g_yx=0_theta=1.57_points=20_phi_angle=1.57_h=0.01_w_s=2.5_w_S=0.5_E_0=-6_epsrel=0.0001.npz (npz, 3852 bytes, 9 tensors)

Energy_phi f8 [20]
-342.31491156878286 -342.31502508488853 -342.3151253118746 -342.3152149436725 -342.31529684198057 -342.31537627329135 -342.315459201134 -342.31554451024977
-342.31560259024104 -342.3156316303309 -342.3156316303309 -342.31560259024104 -342.31554451024977 -342.315459201134 -342.31537627329135 -342.3152968419805
-342.3152149436725 -342.3151253118746 -342.31502508488853 -342.31491156878286
00000000: df90 b6e0 0965 75c0 4150 be57 0a65 75c0
00000010: 4bca d6c0 0a65 75c0 8b24 d31e 0b65 75c0
00000020: 6b8d b374 0b65 75c0 88bb fdc7 0b65 75c0
00000030: 7c81 f21e 0c65 75c0 487f 6678 0c65 75c0
00000040: e439 4db5 0c65 75c0 ac9d c0d3 0c65 75c0
00000050: ac9d c0d3 0c65 75c0 e439 4db5 0c65 75c0
00000060: 487f 6678 0c65 75c0 7c81 f21e 0c65 75c0
00000070: 88bb fdc7 0b65 75c0 6a8d b374 0b65 75c0
00000080: 8b24 d31e 0b65 75c0 4bca d6c0 0a65 75c0
00000090: 4150 be57 0a65 75c0 df90 b6e0 0965 75c0

phi_x_values f8 [20]
-0.01 -0.008947368421052631 -0.007894736842105263 -0.006842105263157895 -0.005789473684210527 -0.004736842105263158 -0.00368421052631579 -0.0026315789473684214
-0.001578947368421053 -0.0005263157894736855 0.0005263157894736838 0.001578947368421053 0.0026315789473684206 0.003684210526315788 0.004736842105263157 0.005789473684210527
0.006842105263157894 0.007894736842105262 0.00894736842105263 0.01
00000000: 7b14 ae47 e17a 84bf 968b 0776 ff52 82bf
00000010: b202 61a4 1d2b 80bf 9bf3 74a5 7706 7cbf
00000020: d2e1 2702 b4b6 77bf 09d0 da5e f066 73bf
00000030: 807c 1b77 592e 6ebf ee58 8130 d28e 65bf
00000040: b86a ced3 95de 59bf 3047 348d 0e3f 41bf
00000050: 2047 348d 0e3f 413f b86a ced3 95de 593f
00000060: ec58 8130 d28e 653f 7c7c 1b77 592e 6e3f
00000070: 08d0 da5e f066 733f d2e1 2702 b4b6 773f
00000080: 9af3 74a5 7706 7c3f b102 61a4 1d2b 803f
00000090: 958b 0776 ff52 823f 7b14 ae47 e17a 843f

w_s f8 []
2.5
00000000: 0000 0000 0000 0440

B f8 []
0.032
00000000: fca9 f1d2 4d62 a03f

h f8 []
0.01
00000000: 7b14 ae47 e17a 843f

root_finding_tol f8 []
1e-08
00000000: 3a8c 30e2 8e79 453e

tol f8 []
1e-06
00000000: 8ded b5a0 f7c6 b03e

Delta_S f8 []
0.2
00000000: 9a99 9999 9999 c93f

epsrel f8 []
0.0001
00000000: 2d43 1ceb e236 1a3f
