Data/fundamental_energy_phi_x_in_(-0.1,0.1))_B=0.016_Delta_s=0_Delta_S=0.2_lambda=0_points=20_g_xx=1_g_xy=0_g_yy=1_g_yx=0_theta=1.57_points=20_phi_angle=1.57_h=0.1_w_s=2.5_w_S=0.5_E_0=-6.npz (npz, 3600 bytes, 8 tensors)

Energy_phi f8 [20]
000000 a0 b9 44 e2 1c 62 75 c0 69 f8 62 46 74 62 75 c0
       -342.13205172391645 -342.15338743839544
000010 08 07 90 dc c2 62 75 c0 2a 94 9a d4 08 63 75 c0
       -342.17257362614373 -342.18965587980585
000020 b8 bb de 7f 46 63 75 c0 94 fd 63 63 7c 63 75 c0
       -342.2047117901343 -342.2178682237511
000030 ff 72 f9 06 ab 63 75 c0 d6 04 a8 d5 ce 63 75 c0
       -342.2292546981916 -342.23799672729854
000040 b4 31 2a b8 e6 63 75 c0 09 bd 6f aa f2 63 75 c0
       -342.2438279770097 -342.24674457214184
000050 09 bd 6f aa f2 63 75 c0 b4 31 2a b8 e6 63 75 c0
       -342.24674457214184 -342.2438279770097
000060 d6 04 a8 d5 ce 63 75 c0 ff 72 f9 06 ab 63 75 c0
       -342.23799672729854 -342.2292546981916
000070 94 fd 63 63 7c 63 75 c0 b8 bb de 7f 46 63 75 c0
       -342.2178682237511 -342.2047117901343
000080 2a 94 9a d4 08 63 75 c0 08 07 90 dc c2 62 75 c0
       -342.18965587980585 -342.17257362614373
000090 69 f8 62 46 74 62 75 c0 a0 b9 44 e2 1c 62 75 c0
       -342.15338743839544 -342.13205172391645

phi_x_values f8 [20]
000000 9a 99 99 99 99 99 b9 bf 7c 6e 89 53 bf e7 b6 bf
       -0.1 -0.08947368421052632
000010 5f 43 79 0d e5 35 b4 bf 41 18 69 c7 0a 84 b1 bf
       -0.07894736842105264 -0.06842105263157895
000020 47 da b1 02 61 a4 ad bf 0c 84 91 76 ac 40 a8 bf
       -0.05789473684210527 -0.04736842105263159
000030 d0 2d 71 ea f7 dc a2 bf 2c af a1 bc 86 f2 9a bf
       -0.0368421052631579 -0.026315789473684223
000040 b4 02 61 a4 1d 2b 90 bf f0 58 81 30 d2 8e 75 bf
       -0.015789473684210534 -0.005263157894736845
000050 e0 58 81 30 d2 8e 75 3f b0 02 61 a4 1d 2b 90 3f
       0.005263157894736831 0.01578947368421052
000060 28 af a1 bc 86 f2 9a 3f d0 2d 71 ea f7 dc a2 3f
       0.02631578947368421 0.0368421052631579
000070 08 84 91 76 ac 40 a8 3f 44 da b1 02 61 a4 ad 3f
       0.04736842105263156 0.05789473684210525
000080 40 18 69 c7 0a 84 b1 3f 5e 43 79 0d e5 35 b4 3f
       0.06842105263157894 0.07894736842105263
000090 7c 6e 89 53 bf e7 b6 3f 9a 99 99 99 99 99 b9 3f
       0.08947368421052632 0.1

w_s f8 []
000000 00 00 00 00 00 00 04 40
       2.5

B f8 []
000000 fc a9 f1 d2 4d 62 90 3f
       0.016

h f8 []
000000 9a 99 99 99 99 99 b9 3f
       0.1

root_finding_tol f8 []
000000 3a 8c 30 e2 8e 79 45 3e
       1e-08

tol f8 []
000000 8d ed b5 a0 f7 c6 b0 3e
       1e-06

Delta_S f8 []
000000 9a 99 99 99 99 99 c9 3f
       0.2
