Data/fundamental_energy_phi_x_in_(-0.01,0.01))_B=0.032_Delta_s=0_Delta_S=0.2_lambda=0_points=20_g_xx=1_g_xy=0_g_yy=1_g_yx=0_theta=1.57_points=20_phi_angle=1.57_h=0.01_w_s=2.5_w_S=0.5_E_0=-6_epsabs=1e-08.npz (npz, 3852 bytes, 9 tensors)

Energy_phi f8 [20]
0	0xc0756509ee95d4ee	-342.3149247982791
1	0xc075650a6462c02e	-342.3150371415567
2	0xc075650acc937326	-342.31513650510385
3	0xc075650b2ab62890	-342.3152262797894
4	0xc075650b81208dd7	-342.31530869213515
5	0xc075650bd42a9b36	-342.3153878845509
6	0xc075650c2b1db6bc	-342.31547080618816
7	0xc075650c848ec97e	-342.3155561044331
8	0xc075650cc17478bb	-342.3156141805336
9	0xc075650cdfe756ce	-342.3156432186778
10	0xc075650cdfe756ce	-342.3156432186778
11	0xc075650cc17478bb	-342.3156141805336
12	0xc075650c848ec97e	-342.3155561044331
13	0xc075650c2b1db6bc	-342.31547080618816
14	0xc075650bd42a9b36	-342.3153878845509
15	0xc075650b81208dd7	-342.31530869213515
16	0xc075650b2ab62890	-342.3152262797894
17	0xc075650acc937326	-342.31513650510385
18	0xc075650a6462c02e	-342.3150371415567
19	0xc0756509ee95d4ee	-342.3149247982791

phi_x_values f8 [20]
0	0xbf847ae147ae147b	-0.01
1	0xbf8252ff76078b96	-0.008947368421052631
2	0xbf802b1da46102b2	-0.007894736842105263
3	0xbf7c0677a574f39b	-0.006842105263157895
4	0xbf77b6b40227e1d2	-0.005789473684210527
5	0xbf7366f05edad009	-0.004736842105263158
6	0xbf6e2e59771b7c80	-0.00368421052631579
7	0xbf658ed2308158ee	-0.0026315789473684214
8	0xbf59de95d3ce6ab8	-0.001578947368421053
9	0xbf413f0e8d344730	-0.0005263157894736855
10	0x3f413f0e8d344720	0.0005263157894736838
11	0x3f59de95d3ce6ab8	0.001578947368421053
12	0x3f658ed2308158ec	0.0026315789473684206
13	0x3f6e2e59771b7c7c	0.003684210526315788
14	0x3f7366f05edad008	0.004736842105263157
15	0x3f77b6b40227e1d2	0.005789473684210527
16	0x3f7c0677a574f39a	0.006842105263157894
17	0x3f802b1da46102b1	0.007894736842105262
18	0x3f8252ff76078b95	0.00894736842105263
19	0x3f847ae147ae147b	0.01

w_s f8 []
0	0x4004000000000000	2.5

B f8 []
0	0x3fa0624dd2f1a9fc	0.032

h f8 []
0	0x3f847ae147ae147b	0.01

root_finding_tol f8 []
0	0x3e45798ee2308c3a	1e-08

tol f8 []
0	0x3eb0c6f7a0b5ed8d	1e-06

Delta_S f8 []
0	0x3fc999999999999a	0.2

epsabs f8 []
0	0x3e45798ee2308c3a	1e-08
