Data/fundamental_energy_phi_x_in_(-0.01,0.0))_B=0.0064_Delta_s=0_Delta_S=0.2_lambda=0_points=20_g_xx=1_g_xy=0_g_yy=1_g_yx=0_theta=1.57_points=20_phi_angle=1.57_h=0.01_w_s=2.5_w_S=0.5_E_0=-6.npz (npz, 3600 bytes, 8 tensors)

Energy_phi f8 [20]
00000000: 14a3 30ad f7af 81c0 425a 290b f8af 81c0
00000010: 1a27 1b64 f8af 81c0 3822 22b8 f8af 81c0
00000020: 3913 ed06 f9af 81c0 36a2 5450 f9af 81c0
00000030: b894 9694 f9af 81c0 2112 b1d3 f9af 81c0
00000040: 0ce9 5f0d faaf 81c0 24b5 1842 faaf 81c0
00000050: 4a8a 7471 faaf 81c0 2198 d79b faaf 81c0
00000060: 268a 37c1 faaf 81c0 b477 43e0 faaf 81c0
00000070: 6d24 2549 f3af 81c0 a41a 720a ebaf 81c0
00000080: 6bf3 9c5b e7af 81c0 b142 fe14 eaaf 81c0
00000090: 68ac b1ea f2af 81c0 ca3d 3385 fbaf 81c0
-565.9959358024375 -565.9961150389356 -565.996284687167 -565.9964449564641 -565.9965952416889 -565.9967352497104 -565.996865440763 -565.9969858010919
-565.9970958226199 -565.9971963815956 -565.9972867111876 -565.9973675578404 -565.9974388445887 -565.9974980612665 -565.9937918569318 -565.9897660173779
-565.9879677068506 -565.9892978538611 -565.9936117058505 -565.9978126528961

phi_x_values f8 [20]
00000000: 7b14 ae47 e17a 84bf 09d0 da5e f066 83bf
00000010: 968b 0776 ff52 82bf 2447 348d 0e3f 81bf
00000020: b202 61a4 1d2b 80bf 807c 1b77 592e 7ebf
00000030: 9bf3 74a5 7706 7cbf b66a ced3 95de 79bf
00000040: d2e1 2702 b4b6 77bf ee58 8130 d28e 75bf
00000050: 09d0 da5e f066 73bf 2447 348d 0e3f 71bf
00000060: 807c 1b77 592e 6ebf b86a ced3 95de 69bf
00000070: ee58 8130 d28e 65bf 2447 348d 0e3f 61bf
00000080: b86a ced3 95de 59bf 2847 348d 0e3f 51bf
00000090: 3047 348d 0e3f 41bf 0000 0000 0000 0000
-0.01 -0.009473684210526316 -0.008947368421052631 -0.008421052631578947 -0.007894736842105263 -0.00736842105263158 -0.006842105263157895 -0.00631578947368421
-0.005789473684210527 -0.005263157894736843 -0.004736842105263158 -0.004210526315789474 -0.00368421052631579 -0.003157894736842106 -0.0026315789473684214 -0.002105263157894737
-0.001578947368421053 -0.0010526315789473693 -0.0005263157894736855 0.0

w_s f8 []
00000000: 0000 0000 0000 0440
2.5

B f8 []
00000000: 2d43 1ceb e236 7a3f
0.0064

h f8 []
00000000: 7b14 ae47 e17a 843f
0.01

root_finding_tol f8 []
00000000: 3a8c 30e2 8e79 453e
1e-08

tol f8 []
00000000: 8ded b5a0 f7c6 b03e
1e-06

Delta_S f8 []
00000000: 9a99 9999 9999 c93f
0.2
