Data/fundamental_energy_phi_x_in_(-0.0001,-0.0))_B_in_(0.076-0.084)_Delta=0.08_lambda_R=0.56_points=16_Nphi=1_Lambda_R=0.56_g_xx=1_g_xy=0_g_yy=1_g_yx=0_theta=1.57_points=16_beta=1000_T=False_phi_angle=1.57_h=0.0001.npz (npz, 3562 bytes, 9 tensors)

Energy_phi f8 [16, 1]
00000000: 4826 2e65 dba8 95c0 396c ad6b dba8 95c0
00000010: 849f 3565 dba8 95c0 df8c 246c dba8 95c0
00000020: 4691 1473 dba8 95c0 6ccf 7579 dba8 95c0
00000030: 49ca fe82 dba8 95c0 ebe9 66d2 dba8 95c0
00000040: 9ea9 0c80 dba8 95c0 5ec0 9086 dba8 95c0
00000050: d87e 3e89 dba8 95c0 6a10 3053 dca8 95c0
00000060: 9acb ec56 dca8 95c0 b188 0894 dba8 95c0
00000070: 651c ed96 dba8 95c0 66f0 4e9a dba8 95c0
-1386.2142531596055 -1386.2142779443077 -1386.2142532709704 -1386.2142797194463 -1386.2143061841648 -1386.2143305213785 -1386.214366894814 -1386.21466980746
-1386.214355657437 -1386.214380513898 -1386.2143907322807 -1386.2151610860842 -1386.21517534249 -1386.214431889861 -1386.2144429253178 -1386.2144558271625

B_values f8 [16]
00000000: dbf9 7e6a bc74 b33f df74 b843 b097 b33f
00000010: e4ef f11c a4ba b33f e86a 2bf6 97dd b33f
00000020: ece5 64cf 8b00 b43f f060 9ea8 7f23 b43f
00000030: f5db d781 7346 b43f f956 115b 6769 b43f
00000040: fdd1 4a34 5b8c b43f 014d 840d 4faf b43f
00000050: 06c8 bde6 42d2 b43f 0a43 f7bf 36f5 b43f
00000060: 0ebe 3099 2a18 b53f 1239 6a72 1e3b b53f
00000070: 17b4 a34b 125e b53f 1b2f dd24 0681 b53f
0.076 0.07653333333333333 0.07706666666666667 0.0776 0.07813333333333333 0.07866666666666666 0.0792 0.07973333333333334
0.08026666666666667 0.0808 0.08133333333333334 0.08186666666666667 0.0824 0.08293333333333333 0.08346666666666668 0.084

mu f8 []
00000000: 3433 3333 3373 41c0
-34.900000000000006

Delta f8 []
00000000: 7b14 ae47 e17a b43f
0.08

phi_x_values f8 [1]
00000000: 2d43 1ceb e236 1abf
-0.0001

h f8 []
00000000: 2d43 1ceb e236 1a3f
0.0001

Lambda_R f8 []
00000000: ec51 b81e 85eb e13f
0.56

root_finding_tol f8 []
00000000: 7b14 ae47 e17a 843f
0.01

tol f8 []
00000000: 7b14 ae47 e17a 843f
0.01
