Data/fundamental_energy_phi_x_in_(-0.01,0.01))_B=0_Delta_s=0_Delta_S=0.2_lambda=0_points=20_g_xx=1_g_xy=0_g_yy=1_g_yx=0_theta=1.57_points=20_phi_angle=1.57_h=0.01_w_s=2.5_w_S=0.5_E_0=-6_epsrel=1e-05.npz (npz, 3852 bytes, 8 tensors)

Energy_phi f8 [20]
00000000: bc53 c654 9163 75c0 b829 7568 9263 75c0
00000010: 4b8b 835d 9363 75c0 9c0c f133 9463 75c0
00000020: 4c4f bdeb 9463 75c0 7602 e884 9563 75c0
00000030: b2e2 70ff 9563 75c0 0fba 575b 9663 75c0
00000040: 1b60 9c98 9663 75c0 dfb9 3eb7 9663 75c0
00000050: dfb9 3eb7 9663 75c0 1b60 9c98 9663 75c0
00000060: 0fba 575b 9663 75c0 b2e2 70ff 9563 75c0
00000070: 7602 e884 9563 75c0 4c4f bdeb 9463 75c0
00000080: 9c0c f133 9463 75c0 4b8b 835d 9363 75c0
00000090: b829 7568 9263 75c0 bc53 c654 9163 75c0
-342.22298123809355 -342.22324414984496 -342.22347785362643 -342.2236823478686 -342.22385763119814 -342.2240037024379 -342.22412056060705 -342.22420820492056
-342.2242666347899 -342.2242958498227 -342.2242958498227 -342.2242666347899 -342.22420820492056 -342.22412056060705 -342.2240037024379 -342.22385763119814
-342.2236823478686 -342.22347785362643 -342.22324414984496 -342.22298123809355

phi_x_values f8 [20]
00000000: 7b14 ae47 e17a 84bf 968b 0776 ff52 82bf
00000010: b202 61a4 1d2b 80bf 9bf3 74a5 7706 7cbf
00000020: d2e1 2702 b4b6 77bf 09d0 da5e f066 73bf
00000030: 807c 1b77 592e 6ebf ee58 8130 d28e 65bf
00000040: b86a ced3 95de 59bf 3047 348d 0e3f 41bf
00000050: 2047 348d 0e3f 413f b86a ced3 95de 593f
00000060: ec58 8130 d28e 653f 7c7c 1b77 592e 6e3f
00000070: 08d0 da5e f066 733f d2e1 2702 b4b6 773f
00000080: 9af3 74a5 7706 7c3f b102 61a4 1d2b 803f
00000090: 958b 0776 ff52 823f 7b14 ae47 e17a 843f
-0.01 -0.008947368421052631 -0.007894736842105263 -0.006842105263157895 -0.005789473684210527 -0.004736842105263158 -0.00368421052631579 -0.0026315789473684214
-0.001578947368421053 -0.0005263157894736855 0.0005263157894736838 0.001578947368421053 0.0026315789473684206 0.003684210526315788 0.004736842105263157 0.005789473684210527
0.006842105263157894 0.007894736842105262 0.00894736842105263 0.01

w_s f8 []
00000000: 0000 0000 0000 0440
2.5

h f8 []
00000000: 7b14 ae47 e17a 843f
0.01

root_finding_tol f8 []
00000000: 3a8c 30e2 8e79 453e
1e-08

tol f8 []
00000000: 8ded b5a0 f7c6 b03e
1e-06

Delta_S f8 []
00000000: 9a99 9999 9999 c93f
0.2

epsrel f8 []
00000000: f168 e388 b5f8 e43e
1e-05
