Data/fundamental_energy_phi_x_in_(-0.01,0.01))_B_in_(0.07200000000000001-0.088)_Delta=0.08_lambda_R=0_points=16_Nphi=100_Lambda_R=0_g_xx=1_g_xy=0_g_yy=1_g_yx=0_theta=1.57_points=16_beta=1000_T=False_phi_angle=1.57_h=0.01_quad.npz (npz, 17026 bytes, 8 tensors)

Energy_phi f8 [16, 100]
-1386.164242679164 -1386.1642741540866 -1386.1643045223107 -1386.164333788416 -1386.1643624922349 -1386.1643895227544 -1386.1644150516022 -1386.1644399385
-1386.1644637780682 -1386.164486551505 -1386.1645082627501 -1386.164528918636 -1386.1645485276756 -1386.164567098852 -1386.164584638472 -1386.1646011520593
-1386.1646166478881 -1386.1646311918093 -1386.1646446696598 -1386.1646571763113 -1386.1646687221182 -1386.1646793179807 -1386.164688933824 -1386.1646975921922
-1386.16470546866 -1386.1647123906605 -1386.1647184196659 -1386.1647236152212 -1386.1647279799745 -1386.164731588155 -1386.164734329609 -1386.1647363877694
-1386.1647377341255 -1386.164738419624 -1386.1647386045288 -1386.1647379709439 -1386.1647369961988 -1386.1647355235402 -1386.1647337189759 -1386.164731749393
-1386.1647294833645 -1386.164727332445 -1386.1647253551346 -1386.1647225337147 -1386.1647203711484 -1386.1647210794713 -1386.1647266074956 -1386.1647340001118
-1386.1647390589526 -1386.1647415883735 -1386.1647415883735 -1386.1647390589526 -1386.1647340001118 -1386.1647266074956 -1386.1647210794713 -1386.1647203711484
-1386.1647225337147 -1386.1647253551346 -1386.164727332445 -1386.1647294833645 -1386.164731749393 -1386.1647337189759 -1386.1647355235402 -1386.1647369961988
-1386.1647379709439 -1386.1647386045288 -1386.164738419624 -1386.1647377341255 -1386.1647363877694 -1386.164734329609 -1386.164731588155 -1386.1647279799745
-1386.1647236152212 -1386.1647184196659 -1386.1647123906605 -1386.16470546866 -1386.1646975921922 -1386.164688933824 -1386.1646793179807 -1386.1646687221182
-1386.1646571763113 -1386.1646446696598 -1386.1646311918093 -1386.1646166478881 -1386.1646011520593 -1386.164584638472 -1386.164567098852 -1386.1645485276756
-1386.164528918636 -1386.1645082627501 -1386.164486551505 -1386.1644637780682 -1386.1644399385 -1386.1644150516022 -1386.1643895227544 -1386.1643624922349
-1386.164333788416 -1386.1643045223107 -1386.1642741540866 -1386.164242679164 -1386.164290911141 -1386.1643212846259 -1386.1643508977827 -1386.1643794257268
-1386.1644068431838 -1386.164433180487 -1386.164458431424 -1386.16448259135 -1386.164505675627 -1386.164527687357 -1386.1645486326802 -1386.1645693871037
-1386.1645873543457 -1386.1646051472096 -1386.1646219064871 -1386.1646376602102 -1386.1646523488607 -1386.1646660521455 -1386.1646787578113 -1386.1646904740405
-1386.1647012129872 -1386.1647110104 -1386.1647202489125 -1386.1647276950607 -1386.1647346549125 -1386.164740715329 -1386.1647459240287 -1386.1647501564064
-1386.1647536479086 -1386.1647562839205 -1386.1647581457291 -1386.1647592439392 -1386.1647596322528 -1386.1647593025064 -1386.1647583463282 -1386.164756792563
-1386.1647547987025 -1386.1647521210812 -1386.164749177668 -1386.164745886096 -1386.1647423631953 -1386.164738880172 -1386.1647354503473 -1386.1647324385394
-1386.164725770051 -1386.1647246803363 -1386.1647275263028 -1386.1647340001118 -1386.1647390589528 -1386.1647415883735 -1386.1647415883735 -1386.1647390589528
-1386.1647340001118 -1386.1647275263028 -1386.1647246803363 -1386.164725770051 -1386.1647324385394 -1386.1647354503473 -1386.164738880172 -1386.1647423631953
-1386.164745886096 -1386.164749177668 -1386.1647521210812 -1386.1647547987025 -1386.164756792563 -1386.1647583463282 -1386.1647593025064 -1386.1647596322525
-1386.1647592439392 -1386.1647581457291 -1386.1647562839205 -1386.1647536479088 -1386.1647501564064 -1386.1647459240287 -1386.164740715329 -1386.1647346549125
-1386.1647276950607 -1386.1647202489125 -1386.1647110104 -1386.1647012129872 -1386.1646904740405 -1386.1646787578113 -1386.1646660521455 -1386.1646523488607
-1386.1646376602102 -1386.1646219064871 -1386.1646051472096 -1386.1645873543457 -1386.1645693871037 -1386.1645486326802 -1386.164527687357 -1386.164505675627
-1386.16448259135 -1386.164458431424 -1386.164433180487 -1386.1644068431838 -1386.1643794257268 -1386.1643508977827 -1386.1643212846259 -1386.164290911141
-1386.1643389920418 -1386.1643689755742 -1386.1643978595744 -1386.1644256374161 -1386.1644523134155 -1386.1644782281826 -1386.1645026875797 -1386.1645260859118
-1386.1645481043136 -1386.16456935319 -1386.164589536129 -1386.1646086630371 -1386.164626733183 -1386.1646437539391 -1386.164659732699 -1386.164674703214
-1386.1646885985017 -1386.1647021774988 -1386.1647134079167 -1386.1647243181874 -1386.164734245417 -1386.1647432020782 -1386.1647511995905 -1386.1647582555133
-1386.164764379069 -1386.1647695842958 -1386.1647739143787 -1386.1647773402547 -1386.1647799166112 -1386.1647816668703 -1386.1647825347115 -1386.1647827534603
-1386.164782156001 -1386.164780862369 -1386.1647788949829 -1386.1647763005026 -1386.1647731394755 -1386.1647694665144 -1386.1647653535877 -1386.1647608733688
-1386.1647561813147 -1386.164751287544 -1386.1647464763548 -1386.1647418311018 -1386.1647356286844 -1386.1647297509248 -1386.1647299964725 -1386.1647340714112
-1386.1647390589526 -1386.1647415883735 -1386.1647415883735 -1386.1647390589526 -1386.1647340714112 -1386.1647299964725 -1386.1647297509248 -1386.1647356286844
00000000: 789e 3b2f a8a8 95c0 85dd 7b37 a8a8 95c0
00000010: a3d7 713f a8a8 95c0 7fdb 1d47 a8a8 95c0
00000020: 5a23 a44e a8a8 95c0 2420 ba55 a8a8 95c0
00000030: 6856 6b5c a8a8 95c0 0e78 f162 a8a8 95c0
00000040: b850 3169 a8a8 95c0 629d 296f a8a8 95c0
00000050: bca1 da74 a8a8 95c0 27d3 447a a8a8 95c0
00000060: e3c3 687f a8a8 95c0 450e 4784 a8a8 95c0
00000070: a51e e088 a8a8 95c0 ea53 348d a8a8 95c0
00000080: 3a3c 4491 a8a8 95c0 e442 1495 a8a8 95c0
00000090: 99be 9c98 a8a8 95c0 3c0d e49b a8a8 95c0
000000a0: b0e0 ea9e a8a8 95c0 38f4 b1a1 a8a8 95c0
000000b0: 2643 37a4 a8a8 95c0 c850 7ca6 a8a8 95c0
000000c0: 78e5 8ca8 a8a8 95c0 886c 5daa a8a8 95c0
000000d0: 0e06 f2ab a8a8 95c0 04b1 4ead a8a8 95c0
000000e0: e89a 73ae a8a8 95c0 fabe 65af a8a8 95c0
000000f0: ccb8 1db0 a8a8 95c0 b9d7 a7b0 a8a8 95c0
00000100: f231 02b1 a8a8 95c0 b832 30b1 a8a8 95c0
00000110: 5c9b 3cb1 a8a8 95c0 7416 12b1 a8a8 95c0
00000120: 76ac d0b0 a8a8 95c0 61d8 6db0 a8a8 95c0
00000130: 33be f4af a8a8 95c0 0691 70af a8a8 95c0
00000140: f37e d8ae a8a8 95c0 6f26 48ae a8a8 95c0
00000150: 8074 c3ad a8a8 95c0 e01c 06ad a8a8 95c0
00000160: 45fc 74ac a8a8 95c0 2a85 a4ac a8a8 95c0
00000170: e67f 17ae a8a8 95c0 149c 07b0 a8a8 95c0
00000180: 4d1a 5bb1 a8a8 95c0 6cd9 04b2 a8a8 95c0
00000190: 6cd9 04b2 a8a8 95c0 4d1a 5bb1 a8a8 95c0
000001a0: 149c 07b0 a8a8 95c0 e67f 17ae a8a8 95c0
000001b0: 2a85 a4ac a8a8 95c0 45fc 74ac a8a8 95c0
000001c0: e01c 06ad a8a8 95c0 8074 c3ad a8a8 95c0
000001d0: 6f26 48ae a8a8 95c0 f37e d8ae a8a8 95c0
000001e0: 0691 70af a8a8 95c0 33be f4af a8a8 95c0
000001f0: 61d8 6db0 a8a8 95c0 76ac d0b0 a8a8 95c0
00000200: 7416 12b1 a8a8 95c0 5c9b 3cb1 a8a8 95c0
00000210: b832 30b1 a8a8 95c0 f231 02b1 a8a8 95c0
00000220: b9d7 a7b0 a8a8 95c0 ccb8 1db0 a8a8 95c0
00000230: fabe 65af a8a8 95c0 e89a 73ae a8a8 95c0
00000240: 04b1 4ead a8a8 95c0 0e06 f2ab a8a8 95c0
00000250: 886c 5daa a8a8 95c0 78e5 8ca8 a8a8 95c0
00000260: c850 7ca6 a8a8 95c0 2643 37a4 a8a8 95c0
00000270: 38f4 b1a1 a8a8 95c0 b0e0 ea9e a8a8 95c0
00000280: 3c0d e49b a8a8 95c0 99be 9c98 a8a8 95c0
00000290: e442 1495 a8a8 95c0 3a3c 4491 a8a8 95c0
000002a0: ea53 348d a8a8 95c0 a51e e088 a8a8 95c0
000002b0: 450e 4784 a8a8 95c0 e3c3 687f a8a8 95c0
000002c0: 27d3 447a a8a8 95c0 bca1 da74 a8a8 95c0
000002d0: 629d 296f a8a8 95c0 b850 3169 a8a8 95c0
000002e0: 0e78 f162 a8a8 95c0 6856 6b5c a8a8 95c0
000002f0: 2420 ba55 a8a8 95c0 5a23 a44e a8a8 95c0
00000300: 7fdb 1d47 a8a8 95c0 a3d7 713f a8a8 95c0
00000310: 85dd 7b37 a8a8 95c0 789e 3b2f a8a8 95c0
00000320: 8669 e03b a8a8 95c0 05be d643 a8a8 95c0
00000330: 2e0c 9a4b a8a8 95c0 8786 1453 a8a8 95c0
00000340: da7a 445a a8a8 95c0 47f2 2b61 a8a8 95c0
00000350: 1282 ca67 a8a8 95c0 70da 1f6e a8a8 95c0
00000360: 4c03 2d74 a8a8 95c0 f031 f279 a8a8 95c0
00000370: dacf 6f7f a8a8 95c0 229e e084 a8a8 95c0
00000380: 0061 9689 a8a8 95c0 1370 408e a8a8 95c0
00000390: 4522 a592 a8a8 95c0 2c59 c696 a8a8 95c0
000003a0: 4416 a09a a8a8 95c0 e8b2 379e a8a8 95c0
000003b0: 955c 8ca1 a8a8 95c0 de9f 9ea4 a8a8 95c0
000003c0: 914d 6fa7 a8a8 95c0 d6cb 00aa a8a8 95c0
000003d0: 46c8 6cac a8a8 95c0 207c 60ae a8a8 95c0
000003e0: 788d 33b0 a8a8 95c0 a142 cab1 a8a8 95c0
000003f0: 69cf 27b3 a8a8 95c0 1bd7 43b4 a8a8 95c0
00000400: a826 2eb5 a8a8 95c0 ff0c dfb5 a8a8 95c0
00000410: a0fe 5bb6 a8a8 95c0 bbb1 a5b6 a8a8 95c0
00000420: e8c0 bfb6 a8a8 95c0 e89f a9b6 a8a8 95c0
00000430: e474 69b6 a8a8 95c0 682f 01b6 a8a8 95c0
00000440: 2561 7bb5 a8a8 95c0 f6af c7b4 a8a8 95c0
00000450: 8228 02b4 a8a8 95c0 bb43 25b3 a8a8 95c0
00000460: c2d8 38b2 a8a8 95c0 e01a 4fb1 a8a8 95c0
00000470: efee 68b0 a8a8 95c0 78d0 9eaf a8a8 95c0
00000480: b64c dfad a8a8 95c0 8e2b 96ad a8a8 95c0
00000490: e328 55ae a8a8 95c0 149c 07b0 a8a8 95c0
000004a0: 4e1a 5bb1 a8a8 95c0 6cd9 04b2 a8a8 95c0
000004b0: 6cd9 04b2 a8a8 95c0 4e1a 5bb1 a8a8 95c0
000004c0: 149c 07b0 a8a8 95c0 e328 55ae a8a8 95c0
000004d0: 8e2b 96ad a8a8 95c0 b64c dfad a8a8 95c0
000004e0: 78d0 9eaf a8a8 95c0 efee 68b0 a8a8 95c0
000004f0: e01a 4fb1 a8a8 95c0 c2d8 38b2 a8a8 95c0
00000500: bb43 25b3 a8a8 95c0 8228 02b4 a8a8 95c0
00000510: f6af c7b4 a8a8 95c0 2561 7bb5 a8a8 95c0
00000520: 682f 01b6 a8a8 95c0 e474 69b6 a8a8 95c0
00000530: e89f a9b6 a8a8 95c0 e7c0 bfb6 a8a8 95c0
00000540: bbb1 a5b6 a8a8 95c0 a0fe 5bb6 a8a8 95c0
00000550: ff0c dfb5 a8a8 95c0 a926 2eb5 a8a8 95c0
00000560: 1bd7 43b4 a8a8 95c0 69cf 27b3 a8a8 95c0
00000570: a142 cab1 a8a8 95c0 788d 33b0 a8a8 95c0
00000580: 207c 60ae a8a8 95c0 46c8 6cac a8a8 95c0
00000590: d6cb 00aa a8a8 95c0 914d 6fa7 a8a8 95c0
000005a0: de9f 9ea4 a8a8 95c0 955c 8ca1 a8a8 95c0
000005b0: e8b2 379e a8a8 95c0 4416 a09a a8a8 95c0
000005c0: 2c59 c696 a8a8 95c0 4522 a592 a8a8 95c0
000005d0: 1370 408e a8a8 95c0 0061 9689 a8a8 95c0
000005e0: 229e e084 a8a8 95c0 dacf 6f7f a8a8 95c0
000005f0: f031 f279 a8a8 95c0 4c03 2d74 a8a8 95c0
00000600: 70da 1f6e a8a8 95c0 1282 ca67 a8a8 95c0
00000610: 47f2 2b61 a8a8 95c0 da7a 445a a8a8 95c0
00000620: 8786 1453 a8a8 95c0 2e0c 9a4b a8a8 95c0
00000630: 05be d643 a8a8 95c0 8669 e03b a8a8 95c0
00000640: 1c11 7b48 a8a8 95c0 463a 5750 a8a8 95c0
00000650: 9e99 e957 a8a8 95c0 4ebd 315f a8a8 95c0
00000660: 7cef 2f66 a8a8 95c0 cb0b fb6c a8a8 95c0
00000670: 097d 6473 a8a8 95c0 52b9 8679 a8a8 95c0
00000680: 955a 4c7f a8a8 95c0 8057 de84 a8a8 95c0
00000690: c0cb 288a a8a8 95c0 8861 2c8f a8a8 95c0
000006a0: 460c e993 a8a8 95c0 a34a 5f98 a8a8 95c0
000006b0: a49b 8f9c a8a8 95c0 2143 7ca0 a8a8 95c0
000006c0: 5bc2 20a4 a8a8 95c0 c007 b0a7 a8a8 95c0
000006d0: dcb0 a1aa a8a8 95c0 e2dd 7dad a8a8 95c0
000006e0: 6412 18b0 a8a8 95c0 a824 71b2 a8a8 95c0
000006f0: dfd8 89b4 a8a8 95c0 b45c 63b6 a8a8 95c0
00000700: 974e feb7 a8a8 95c0 b49f 5bb9 a8a8 95c0
00000710: f635 7eba a8a8 95c0 101e 64bb a8a8 95c0
00000720: 8803 11bc a8a8 95c0 c178 86bc a8a8 95c0
00000730: 27b6 c0bc a8a8 95c0 3a64 cfbc a8a8 95c0
00000740: f44b a7bc a8a8 95c0 877b 50bc a8a8 95c0
00000750: 1774 ccbb a8a8 95c0 4257 1ebb a8a8 95c0
00000760: 3a35 4aba a8a8 95c0 3cb8 53b9 a8a8 95c0
00000770: b1b4 3fb8 a8a8 95c0 1e0b 13b7 a8a8 95c0
00000780: 3e2a d8b5 a8a8 95c0 e7bf 8fb4 a8a8 95c0
00000790: 4de0 4cb3 a8a8 95c0 7623 15b2 a8a8 95c0
000007a0: bee6 74b0 a8a8 95c0 9a73 eaae a8a8 95c0
000007b0: 14ee faae a8a8 95c0 fe64 0cb0 a8a8 95c0
000007c0: 4d1a 5bb1 a8a8 95c0 6cd9 04b2 a8a8 95c0
000007d0: 6cd9 04b2 a8a8 95c0 4d1a 5bb1 a8a8 95c0
000007e0: fe64 0cb0 a8a8 95c0 14ee faae a8a8 95c0
000007f0: 9a73 eaae a8a8 95c0 bee6 74b0 a8a8 95c0

B_values f8 [16]
0.07200000000000001 0.07306666666666667 0.07413333333333334 0.0752 0.07626666666666668 0.07733333333333334 0.07840000000000001 0.07946666666666667
0.08053333333333335 0.0816 0.08266666666666668 0.08373333333333334 0.08480000000000001 0.08586666666666667 0.08693333333333333 0.08800000000000001
00000000: 3cdf 4f8d 976e b23f 44d5 c23f 7fb4 b23f
00000010: 4dcb 35f2 66fa b23f 55c1 a8a4 4e40 b33f
00000020: 5eb7 1b57 3686 b33f 66ad 8e09 1ecc b33f
00000030: 6fa3 01bc 0512 b43f 7799 746e ed57 b43f
00000040: 808f e720 d59d b43f 8885 5ad3 bce3 b43f
00000050: 917b cd85 a429 b53f 9971 4038 8c6f b53f
00000060: a267 b3ea 73b5 b53f aa5d 269d 5bfb b53f
00000070: b253 994f 4341 b63f bb49 0c02 2b87 b63f

mu f8 []
-34.900000000000006
00000000: 3433 3333 3373 41c0

Delta f8 []
0.08
00000000: 7b14 ae47 e17a b43f

phi_x_values f8 [100]
-0.01 -0.009797979797979799 -0.009595959595959595 -0.009393939393939394 -0.009191919191919192 -0.00898989898989899 -0.008787878787878789 -0.008585858585858586
-0.008383838383838384 -0.008181818181818182 -0.00797979797979798 -0.0077777777777777776 -0.007575757575757576 -0.007373737373737374 -0.007171717171717172 -0.0069696969696969695
-0.006767676767676768 -0.006565656565656566 -0.006363636363636364 -0.006161616161616161 -0.00595959595959596 -0.005757575757575758 -0.005555555555555556 -0.005353535353535353
-0.005151515151515152 -0.00494949494949495 -0.004747474747474748 -0.004545454545454545 -0.004343434343434344 -0.004141414141414142 -0.00393939393939394 -0.003737373737373737
-0.0035353535353535356 -0.003333333333333334 -0.0031313131313131315 -0.002929292929292929 -0.0027272727272727275 -0.002525252525252526 -0.0023232323232323234 -0.002121212121212121
-0.0019191919191919194 -0.0017171717171717178 -0.0015151515151515162 -0.001313131313131313 -0.0011111111111111113 -0.0009090909090909097 -0.0007070707070707064 -0.0005050505050505048
-0.00030303030303030325 -0.00010101010101010166 0.00010101010101009993 0.00030303030303030325 0.0005050505050505048 0.0007070707070707064 0.0009090909090909097 0.0011111111111111113
0.001313131313131313 0.0015151515151515145 0.001717171717171716 0.0019191919191919194 0.002121212121212121 0.0023232323232323226 0.002525252525252526 0.0027272727272727275
0.002929292929292929 0.0031313131313131307 0.0033333333333333322 0.0035353535353535356 0.003737373737373737 0.003939393939393939 0.004141414141414142 0.004343434343434344
0.004545454545454545 0.004747474747474747 0.004949494949494948 0.005151515151515152 0.005353535353535353 0.005555555555555555 0.005757575757575758 0.005959595959595958
0.006161616161616161 0.006363636363636365 0.006565656565656565 0.006767676767676768 0.006969696969696968 0.007171717171717171 0.007373737373737374 0.007575757575757574
0.0077777777777777776 0.007979797979797981 0.00818181818181818 0.008383838383838384 0.008585858585858587 0.008787878787878787 0.00898989898989899 0.00919191919191919
0.009393939393939394 0.009595959595959597 0.009797979797979797 0.01
00000000: 7b14 ae47 e17a 84bf bcbe 6496 f610 84bf
00000010: fc68 1be5 0ba7 83bf 3d13 d233 213d 83bf
00000020: 7ebd 8882 36d3 82bf bf67 3fd1 4b69 82bf
00000030: 0012 f61f 61ff 81bf 40bc ac6e 7695 81bf
00000040: 8166 63bd 8b2b 81bf c210 1a0c a1c1 80bf
00000050: 02bb d05a b657 80bf 86ca 0e53 97db 7fbf
00000060: 081f 7cf0 c107 7fbf 8a73 e98d ec33 7ebf
00000070: 0bc8 562b 1760 7dbf 8c1c c4c8 418c 7cbf
00000080: 0e71 3166 6cb8 7bbf 90c5 9e03 97e4 7abf
00000090: 111a 0ca1 c110 7abf 926e 793e ec3c 79bf
000000a0: 14c3 e6db 1669 78bf 9617 5479 4195 77bf
000000b0: 176c c116 6cc1 76bf 98c0 2eb4 96ed 75bf
000000c0: 1a15 9c51 c119 75bf 9c69 09ef eb45 74bf
000000d0: 1dbe 768c 1672 73bf 9e12 e429 419e 72bf
000000e0: 2067 51c7 6bca 71bf a2bb be64 96f6 70bf
000000f0: 2310 2c02 c122 70bf 48c9 323f d79d 6ebf
00000100: 4c72 0d7a 2cf6 6cbf 501b e8b4 814e 6bbf
00000110: 52c4 c2ef d6a6 69bf 546d 9d2a 2cff 67bf
00000120: 5816 7865 8157 66bf 5cbf 52a0 d6af 64bf
00000130: 5e68 2ddb 2b08 63bf 6011 0816 8160 61bf
00000140: c874 c5a1 ac71 5fbf d0c6 7a17 5722 5cbf
00000150: d818 308d 01d3 58bf d86a e502 ac83 55bf
00000160: e0bc 9a78 5634 52bf d01d a0dc 01ca 4dbf
00000170: d0c1 0ac8 562b 47bf e065 75b3 ab8c 40bf
00000180: e013 c03d 01dc 33bf 0070 5552 ac7a 1abf
00000190: 806f 5552 ac7a 1a3f e013 c03d 01dc 333f
000001a0: e065 75b3 ab8c 403f d0c1 0ac8 562b 473f
000001b0: d01d a0dc 01ca 4d3f e0bc 9a78 5634 523f
000001c0: d86a e502 ac83 553f d018 308d 01d3 583f
000001d0: c8c6 7a17 5722 5c3f c874 c5a1 ac71 5f3f
000001e0: 6011 0816 8160 613f 5c68 2ddb 2b08 633f
000001f0: 5cbf 52a0 d6af 643f 5816 7865 8157 663f
00000200: 546d 9d2a 2cff 673f 50c4 c2ef d6a6 693f
00000210: 4c1b e8b4 814e 6b3f 4c72 0d7a 2cf6 6c3f
00000220: 48c9 323f d79d 6e3f 2210 2c02 c122 703f
00000230: a2bb be64 96f6 703f 2067 51c7 6bca 713f
00000240: 9e12 e429 419e 723f 1cbe 768c 1672 733f
00000250: 9a69 09ef eb45 743f 1a15 9c51 c119 753f
00000260: 98c0 2eb4 96ed 753f 166c c116 6cc1 763f
00000270: 9617 5479 4195 773f 12c3 e6db 1669 783f
00000280: 926e 793e ec3c 793f 121a 0ca1 c110 7a3f
00000290: 8ec5 9e03 97e4 7a3f 0e71 3166 6cb8 7b3f
000002a0: 8a1c c4c8 418c 7c3f 0ac8 562b 1760 7d3f
000002b0: 8a73 e98d ec33 7e3f 061f 7cf0 c107 7f3f
000002c0: 86ca 0e53 97db 7f3f 03bb d05a b657 803f
000002d0: c110 1a0c a1c1 803f 8166 63bd 8b2b 813f
000002e0: 41bc ac6e 7695 813f ff11 f61f 61ff 813f
000002f0: bf67 3fd1 4b69 823f 7dbd 8882 36d3 823f
00000300: 3d13 d233 213d 833f fd68 1be5 0ba7 833f
00000310: bbbe 6496 f610 843f 7b14 ae47 e17a 843f

h f8 []
0.01
00000000: 7b14 ae47 e17a 843f

root_finding_tol f8 []
1e-08
00000000: 3a8c 30e2 8e79 453e

tol f8 []
1e-06
00000000: 8ded b5a0 f7c6 b03e
