Data/fundamental_energy_phi_x_in_(-0.1,0.1))_B=0_Delta_s=0_Delta_S=0.2_lambda=0_points=20_Nphi=20_g_xx=1_g_xy=0_g_yy=1_g_yx=0_theta=1.57_points=20_phi_angle=1.57_h=0.01_w_s=2.5_w_S=0.5_E_0=-6.npz (npz, 3594 bytes, 6 tensors)

Energy_phi f8 [20]
0	0xc081af9437e3c7c6	-565.9473722262708
1	0xc081af943dc32080	-565.9473834270757
2	0xc081af944fdd2376	-565.9474179531524
3	0xc081af945379f0a1	-565.94742484346
4	0xc081af945da12735	-565.9474442091074
5	0xc081af93f908335a	-565.9472523346587
6	0xc081af940792a3c9	-565.947280068992
7	0xc081af941c2a4073	-565.9473193455618
8	0xc081af9448c7c553	-565.94740444251
9	0xc081af958915422f	-565.9480153714011
10	0xc081af958915422f	-565.9480153714011
11	0xc081af9448c7c552	-565.9474044425099
12	0xc081af941c2a4073	-565.9473193455618
13	0xc081af940792a3c9	-565.947280068992
14	0xc081af93f908335a	-565.9472523346587
15	0xc081af945a7552cc	-565.9474381605046
16	0xc081af9445af2dfb	-565.9473985372455
17	0xc081af94550be32b	-565.9474278382016
18	0xc081af943f69f13d	-565.9473865772958
19	0xc081af943a0ed60e	-565.9473763617586

phi_x_values f8 [20]
0	0xbfb999999999999a	-0.1
1	0xbfb6e7bf53896e7c	-0.08947368421052632
2	0xbfb435e50d79435f	-0.07894736842105264
3	0xbfb1840ac7691841	-0.06842105263157895
4	0xbfada46102b1da47	-0.05789473684210527
5	0xbfa840ac7691840c	-0.04736842105263159
6	0xbfa2dcf7ea712dd0	-0.0368421052631579
7	0xbf9af286bca1af2c	-0.026315789473684223
8	0xbf902b1da46102b4	-0.015789473684210534
9	0xbf758ed2308158f0	-0.005263157894736845
10	0x3f758ed2308158e0	0.005263157894736831
11	0x3f902b1da46102b0	0.01578947368421052
12	0x3f9af286bca1af28	0.02631578947368421
13	0x3fa2dcf7ea712dd0	0.0368421052631579
14	0x3fa840ac76918408	0.04736842105263156
15	0x3fada46102b1da44	0.05789473684210525
16	0x3fb1840ac7691840	0.06842105263157894
17	0x3fb435e50d79435e	0.07894736842105263
18	0x3fb6e7bf53896e7c	0.08947368421052632
19	0x3fb999999999999a	0.1

w_s f8 []
0	0x4004000000000000	2.5

h f8 []
0	0x3f847ae147ae147b	0.01

root_finding_tol f8 []
0	0x3e45798ee2308c3a	1e-08

tol f8 []
0	0x3eb0c6f7a0b5ed8d	1e-06
