Data/fundamental_energy_phi_x_in_(-0.01,0.0))_B=0.0128_Delta_s=0_Delta_S=0.2_lambda=0_points=20_g_xx=1_g_xy=0_g_yy=1_g_yx=0_theta=1.57_points=20_phi_angle=1.57_h=0.01_w_s=2.5_w_S=0.5_E_0=-6.npz (npz, 3600 bytes, 8 tensors)

Energy_phi f8 [20]
0	0xc081b01ba157cede	-566.013491331101
1	0xc081b01bf568299a	-566.0136516702362
2	0xc081b01c3fe6d970	-566.0137937579257
3	0xc081b01c8b9b5787	-566.0139381538473
4	0xc081b01cce88282d	-566.0140658032666
5	0xc081b01d0ab72c98	-566.0141805944904
6	0xc081b01d424ddd14	-566.0142866213887
7	0xc081b01d755580c1	-566.0143839530866
8	0xc081b01da16fd998	-566.0144680727271
9	0xc081b01dc7f249ed	-566.01454152382
10	0xc081b01de8af4358	-566.0146039669444
11	0xc081b01e036cb6b5	-566.0146549695261
12	0xc081b01e17ff02bc	-566.0146942064962
13	0xc081b01e28038f42	-566.0147247579664
14	0xc081b0137802b4c4	-566.0095062457481
15	0xc081b00e799546c3	-566.0070678388805
16	0xc081b00e1715fd69	-566.006879970356
17	0xc081b0100edf61d5	-566.0078408672076
18	0xc081b014f283a802	-566.0102281842849
19	0xc081b020c6bdc907	-566.0160040690397

phi_x_values f8 [20]
0	0xbf847ae147ae147b	-0.01
1	0xbf8366f05edad009	-0.009473684210526316
2	0xbf8252ff76078b96	-0.008947368421052631
3	0xbf813f0e8d344724	-0.008421052631578947
4	0xbf802b1da46102b2	-0.007894736842105263
5	0xbf7e2e59771b7c80	-0.00736842105263158
6	0xbf7c0677a574f39b	-0.006842105263157895
7	0xbf79de95d3ce6ab6	-0.00631578947368421
8	0xbf77b6b40227e1d2	-0.005789473684210527
9	0xbf758ed2308158ee	-0.005263157894736843
10	0xbf7366f05edad009	-0.004736842105263158
11	0xbf713f0e8d344724	-0.004210526315789474
12	0xbf6e2e59771b7c80	-0.00368421052631579
13	0xbf69de95d3ce6ab8	-0.003157894736842106
14	0xbf658ed2308158ee	-0.0026315789473684214
15	0xbf613f0e8d344724	-0.002105263157894737
16	0xbf59de95d3ce6ab8	-0.001578947368421053
17	0xbf513f0e8d344728	-0.0010526315789473693
18	0xbf413f0e8d344730	-0.0005263157894736855
19	0x0000000000000000	0.0

w_s f8 []
0	0x4004000000000000	2.5

B f8 []
0	0x3f8a36e2eb1c432d	0.0128

h f8 []
0	0x3f847ae147ae147b	0.01

root_finding_tol f8 []
0	0x3e45798ee2308c3a	1e-08

tol f8 []
0	0x3eb0c6f7a0b5ed8d	1e-06

Delta_S f8 []
0	0x3fc999999999999a	0.2
