Data/superfluid_density_in_the_lattice_L_x=200_B_in_(0.30000000000000004-0.6)_Delta_s=0_Delta_S=0.2_lambda=0_points=16_theta=1.57_points=16_phi_angle=1.57_h=0.001_w_s=2.5_w_S=0.5_E_0=-6.npz (npz, 4142 bytes, 8 tensors)

n_B_y f8 [16, 4]
0.33174765703734016 0.33174763957504183 0.0 0.0 0.33145521811093204 0.3314552464871668 0.0 0.0
0.33114659818238584 0.3311465807200875 -7.275957614183427e-10 -7.275957614183427e-10 0.33082185909734113 0.330821771058254 -7.275957614183427e-10 -7.275957614183427e-10
0.33048129989765584 0.33048133627744397 9.094947017729283e-10 9.094947017729283e-10 -0.6798955771955661 -0.6798956193961204 2.0008883439004425e-09 2.0008883439004425e-09
0.059146571584278725 0.05914652647334152 0.0 0.0 0.2277779240102973 0.22777792109991427 -1.2732925824820995e-09 -1.2732925824820995e-09
0.23860693909227848 0.2386070242209826 -1.4551915228366854e-09 -1.4551915228366854e-09 0.02555337632657029 0.025553351588314403 -5.45696821063757e-10 -5.45696821063757e-10
0.12215367387398146 0.12215374226798306 5.45696821063757e-10 5.45696821063757e-10 0.030096086993580688 0.030096065893303603 -7.275957614183427e-10 -7.275957614183427e-10
0.25720758858369663 0.2572075100033544 -1.8189894035458567e-10 -1.8189894035458567e-10 0.18675842293305323 0.18675831961445513 2.182787284255028e-09 2.182787284255028e-09
0.20667263670475225 0.20667268763645555 2.182787284255028e-09 2.182787284255028e-09 0.1718204948701896 0.17182051160489212 1.4551915228366854e-09 1.4551915228366854e-09
00000000: 0100 6086 5a3b d53f 0000 a073 5a3b d53f
00000010: 0000 0000 0000 0000 0000 0000 0000 0000
00000020: 0000 78f2 8f36 d53f 0100 f010 9036 d53f
00000030: 0000 0000 0000 0000 0000 0000 0000 0000
00000040: 0100 5880 8131 d53f 0000 986d 8131 d53f
00000050: 0100 0000 0000 09be 0100 0000 0000 09be
00000060: 0100 6872 2f2c d53f 0100 e013 2f2c d53f
00000070: 0100 0000 0000 09be 0100 0000 0000 09be
00000080: 0000 c009 9b26 d53f 0100 d030 9b26 d53f
00000090: 0100 0000 0040 0f3e 0100 0000 0040 0f3e
000000a0: 0000 985e b4c1 e5bf 0100 4075 b4c1 e5bf
000000b0: 0100 0000 0030 213e 0100 0000 0030 213e
000000c0: 0100 409d 7548 ae3f 0100 c019 7448 ae3f
000000d0: 0000 0000 0000 0000 0000 0000 0000 0000
000000e0: 0100 30b7 d327 cd3f 0100 f0b0 d327 cd3f
000000f0: 0000 0000 00e0 15be 0000 0000 00e0 15be
00000100: 0000 0014 ac8a ce3f 0100 d0ca ac8a ce3f
00000110: 0100 0000 0000 19be 0100 0000 0000 19be
00000120: 0100 800e aa2a 9a3f 0100 8065 a82a 9a3f
00000130: 0100 0000 00c0 02be 0100 0000 00c0 02be
00000140: 0000 6092 7645 bf3f 0200 20b8 7745 bf3f
00000150: 0100 0000 00c0 023e 0100 0000 00c0 023e
00000160: 0100 8035 82d1 9e3f 0000 00cb 80d1 9e3f
00000170: 0100 0000 0000 09be 0100 0000 0000 09be
00000180: 0000 50d1 1676 d03f 0000 f07c 1676 d03f
00000190: 0100 0000 0000 e9bd 0100 0000 0000 e9bd
000001a0: 0000 6033 b3e7 c73f 0100 8055 b2e7 c73f
000001b0: 0100 0000 00c0 223e 0100 0000 00c0 223e
000001c0: 0100 d0bb 3f74 ca3f 0100 3029 4074 ca3f
000001d0: 0100 0000 00c0 223e 0100 0000 00c0 223e
000001e0: 0100 20c7 36fe c53f 0100 10eb 36fe c53f
000001f0: 0100 0000 0000 193e 0100 0000 0000 193e

B_values f8 [16]
0.30000000000000004 0.32000000000000006 0.3400000000000001 0.36000000000000004 0.38000000000000006 0.4000000000000001 0.42000000000000004 0.44000000000000006
0.4600000000000001 0.4800000000000001 0.5000000000000001 0.52 0.54 0.56 0.5800000000000001 0.6000000000000001
00000000: 3433 3333 3333 d33f 7c14 ae47 e17a d43f
00000010: c4f5 285c 8fc2 d53f 0bd7 a370 3d0a d73f
00000020: 53b8 1e85 eb51 d83f 9b99 9999 9999 d93f
00000030: e27a 14ae 47e1 da3f 2a5c 8fc2 f528 dc3f
00000040: 723d 0ad7 a370 dd3f ba1e 85eb 51b8 de3f
00000050: 0100 0000 0000 e03f a470 3d0a d7a3 e03f
00000060: 48e1 7a14 ae47 e13f ec51 b81e 85eb e13f
00000070: 90c2 f528 5c8f e23f 3433 3333 3333 e33f

w_s f8 []
2.5
00000000: 0000 0000 0000 0440

w_S f8 []
0.5
00000000: 0000 0000 0000 e03f

h f8 []
0.001
00000000: fca9 f1d2 4d62 503f

Delta_S f8 []
0.2
00000000: 9a99 9999 9999 c93f

theta f8 []
1.5707963267948966
00000000: 182d 4454 fb21 f93f

phi_angle f8 []
1.5707963267948966
00000000: 182d 4454 fb21 f93f
