Data/superfluid_density_in_the_lattice_L_x=500_B_in_(0.30000000000000004-0.6)_Delta_s=0_Delta_S=0.2_lambda=0_points=16_theta=1.57_points=16_phi_angle=1.57_h=0.001_w_s=2.5_w_S=0.5_E_0=-6.npz (npz, 4142 bytes, 8 tensors)

n_B_y f8 [16, 4]
0	0x3fd53b5a8d000000	0.33174766320735216
1	0x3fd53b59df000000	0.3317475011572242
2	0x3e2e000000000000	3.4924596548080444e-09
3	0x3e2e000000000000	3.4924596548080444e-09
4	0x3fd53690e2000000	0.3314554411917925
5	0x3fd53690ef000000	0.33145545329898596
6	0xbe32000000000000	-4.190951585769653e-09
7	0xbe32000000000000	-4.190951585769653e-09
8	0x3fd531825b000000	0.3311468018218875
9	0x3fd53182a0000000	0.33114686608314514
10	0x3e00000000000000	4.656612873077393e-10
11	0x3e00000000000000	4.656612873077393e-10
12	0x3fd52c2fc6000000	0.33082193695008755
13	0x3fd52c3063000000	0.33082208316773176
14	0xbe2c000000000000	-3.259629011154175e-09
15	0xbe2c000000000000	-3.259629011154175e-09
16	0x3fd5269bd0000000	0.33048148453235626
17	0x3fd5269b99000000	0.33048143330961466
18	0xbe00000000000000	-4.656612873077393e-10
19	0xbe00000000000000	-4.656612873077393e-10
20	0xbfe1daf180800000	-0.5579764852300286
21	0xbfe1daf18a800000	-0.5579765038564801
22	0xbdf0000000000000	-2.3283064365386963e-10
23	0xbdf0000000000000	-2.3283064365386963e-10
24	0xbfbfea6087ffffff	-0.12467006035149096
25	0xbfbfea613bffffff	-0.12467010226100682
26	0x3e00000000000000	4.656612873077393e-10
27	0x3e00000000000000	4.656612873077393e-10
28	0x3f8bf84b00000000	0.01365717500448227
29	0x3f8bf84360000000	0.013657118193805218
30	0x3e2c000000000000	3.259629011154175e-09
31	0x3e2c000000000000	3.259629011154175e-09
32	0x3fbd48bd00000000	0.11439114809036255
33	0x3fbd48bc10000000	0.11439109221100807
34	0x3e10000000000000	9.313225746154785e-10
35	0x3e10000000000000	9.313225746154785e-10
36	0x3fbc694eb4000000	0.11098186392337084
37	0x3fbc694e4c000000	0.1109818397089839
38	0x3e1c000000000000	1.6298145055770874e-09
39	0x3e1c000000000000	1.6298145055770874e-09
40	0x3fc1c5f49e000000	0.13885362353175879
41	0x3fc1c5f516000000	0.13885367941111326
42	0x3e1c000000000000	1.6298145055770874e-09
43	0x3e1c000000000000	1.6298145055770874e-09
44	0x3fc984b4fe000000	0.19936239626258612
45	0x3fc984b5c4000000	0.199362488463521
46	0x3e24000000000000	2.3283064365386963e-09
47	0x3e24000000000000	2.3283064365386963e-09
48	0x3fc3282e36000000	0.14966371189802885
49	0x3fc3282e22000000	0.1496637025848031
50	0x0000000000000000	0.0
51	0x0000000000000000	0.0
52	0x3fc30ee788000000	0.1488923467695713
53	0x3fc30ee7d8000000	0.1488923840224743
54	0xbdf0000000000000	-2.3283064365386963e-10
55	0xbdf0000000000000	-2.3283064365386963e-10
56	0x3fbdd5b784000000	0.11654231045395136
57	0x3fbdd5b90c000000	0.11654240172356367
58	0x3e18000000000000	1.3969838619232178e-09
59	0x3e18000000000000	1.3969838619232178e-09
60	0x3fc666f59c000000	0.17501707188785076
61	0x3fc666f618000000	0.1750171296298504
62	0xbe00000000000000	-4.656612873077393e-10
63	0xbe00000000000000	-4.656612873077393e-10

B_values f8 [16]
0	0x3fd3333333333334	0.30000000000000004
1	0x3fd47ae147ae147c	0.32000000000000006
2	0x3fd5c28f5c28f5c4	0.3400000000000001
3	0x3fd70a3d70a3d70b	0.36000000000000004
4	0x3fd851eb851eb853	0.38000000000000006
5	0x3fd999999999999b	0.4000000000000001
6	0x3fdae147ae147ae2	0.42000000000000004
7	0x3fdc28f5c28f5c2a	0.44000000000000006
8	0x3fdd70a3d70a3d72	0.4600000000000001
9	0x3fdeb851eb851eba	0.4800000000000001
10	0x3fe0000000000001	0.5000000000000001
11	0x3fe0a3d70a3d70a4	0.52
12	0x3fe147ae147ae148	0.54
13	0x3fe1eb851eb851ec	0.56
14	0x3fe28f5c28f5c290	0.5800000000000001
15	0x3fe3333333333334	0.6000000000000001

w_s f8 []
0	0x4004000000000000	2.5

w_S f8 []
0	0x3fe0000000000000	0.5

h f8 []
0	0x3f50624dd2f1a9fc	0.001

Delta_S f8 []
0	0x3fc999999999999a	0.2

theta f8 []
0	0x3ff921fb54442d18	1.5707963267948966

phi_angle f8 []
0	0x3ff921fb54442d18	1.5707963267948966
