Data/superfluid_density_in_the_lattice_B_in_(0.0-0.6)_Delta_s=0_Delta_S=0.2_lambda=0_points=16_theta=1.57_points=16_phi_angle=1.57_h=0.001_w_s=2.5_w_S=0.5_E_0=-6.npz (npz, 4142 bytes, 8 tensors)

n_B_y f8 [16, 4]
0.3339369795867242 0.33393700432498014 -7.275957614183427e-10 -7.275957614183427e-10 0.33389687887392944 0.3338968825119082 9.094947017729283e-10 9.094947017729283e-10
0.3337770081998315 0.3337770111102145 -1.2732925824820995e-09 -1.2732925824820995e-09 0.3335780624183826 0.33357808788423426 -5.45696821063757e-10 -5.45696821063757e-10
0.33330132282571867 0.33330130318063317 1.4551915228366854e-09 1.4551915228366854e-09 0.3329483472043649 0.33294829190708697 -2.182787284255028e-09 -2.182787284255028e-09
0.3325209239847027 0.33252090142923413 3.6379788070917135e-10 3.6379788070917135e-10 0.33202185659320094 0.33202188715222297 0.0 0.0
0.3314537774713245 0.33145372581202537 2.0008883439004425e-09 2.0008883439004425e-09 0.3308199629827868 0.3308199833554682 5.45696821063757e-10 5.45696821063757e-10
-1.1961872573010623 -1.1961873111431487 1.091393642127514e-09 1.091393642127514e-09 0.33032809806172736 0.33032811988960026 5.45696821063757e-10 5.45696821063757e-10
-0.2924679160059896 -0.292467911640415 -1.091393642127514e-09 -1.091393642127514e-09 -0.0021365071006584913 -0.002136520197382197 -1.8189894035458567e-10 -1.8189894035458567e-10
0.32899871366680605 0.3289987987955101 0.0 0.0 -0.16365828050766143 -0.16365829069400206 3.6379788070917135e-10 3.6379788070917135e-10
00000000: 0000 9035 395f d53f 0100 2050 395f d53f
00000010: 0100 0000 0000 09be 0100 0000 0000 09be
00000020: 0100 c003 915e d53f 0000 a807 915e d53f
00000030: 0100 0000 0040 0f3e 0100 0000 0040 0f3e
00000040: 0100 983d 9a5c d53f 0000 b840 9a5c d53f
00000050: 0000 0000 00e0 15be 0000 0000 00e0 15be
00000060: 0000 30cd 5759 d53f 0000 88e8 5759 d53f
00000070: 0100 0000 00c0 02be 0100 0000 00c0 02be
00000080: 0000 5012 cf54 d53f 0100 38fd ce54 d53f
00000090: 0100 0000 0000 193e 0100 0000 0000 193e
000000a0: 0100 a095 064f d53f 0000 405a 064f d53f
000000b0: 0100 0000 00c0 22be 0100 0000 00c0 22be
000000c0: 0000 70d7 0548 d53f 0100 38bf 0548 d53f
000000d0: 0100 0000 0000 f93d 0100 0000 0000 f93d
000000e0: 0000 e899 d83f d53f 0100 b8ba d83f d53f
000000f0: 0000 0000 0000 0000 0000 0000 0000 0000
00000100: 0100 98e7 8936 d53f 0000 20b0 8936 d53f
00000110: 0100 0000 0030 213e 0100 0000 0030 213e
00000120: 0000 787e 272c d53f 0100 5894 272c d53f
00000130: 0100 0000 00c0 023e 0100 0000 00c0 023e
00000140: 0000 e03f 9523 f3bf 0000 544e 9523 f3bf
00000150: 0100 0000 00c0 123e 0100 0000 00c0 123e
00000160: 0000 8876 1824 d53f 0100 f88d 1824 d53f
00000170: 0100 0000 00c0 023e 0100 0000 00c0 023e
00000180: 0100 9859 cbb7 d2bf 0100 e854 cbb7 d2bf
00000190: 0100 0000 00c0 12be 0100 0000 00c0 12be
000001a0: 0000 0084 9480 61bf 0000 008c 9b80 61bf
000001b0: 0100 0000 0000 e9bd 0100 0000 0000 e9bd
000001c0: 0100 e89e 500e d53f 0000 50fa 500e d53f
000001d0: 0000 0000 0000 0000 0000 0000 0000 0000
000001e0: 0100 4029 c1f2 c4bf 0000 203f c1f2 c4bf
000001f0: 0100 0000 0000 f93d 0100 0000 0000 f93d

B_values f8 [16]
0.0 0.04000000000000001 0.08000000000000002 0.12000000000000002 0.16000000000000003 0.20000000000000004 0.24000000000000005 0.28
0.32000000000000006 0.3600000000000001 0.4000000000000001 0.44000000000000006 0.4800000000000001 0.5200000000000001 0.56 0.6000000000000001
00000000: 0000 0000 0000 0000 7c14 ae47 e17a a43f
00000010: 7c14 ae47 e17a b43f ba1e 85eb 51b8 be3f
00000020: 7c14 ae47 e17a c43f 9b99 9999 9999 c93f
00000030: ba1e 85eb 51b8 ce3f ec51 b81e 85eb d13f
00000040: 7c14 ae47 e17a d43f 0cd7 a370 3d0a d73f
00000050: 9b99 9999 9999 d93f 2a5c 8fc2 f528 dc3f
00000060: ba1e 85eb 51b8 de3f a570 3d0a d7a3 e03f
00000070: ec51 b81e 85eb e13f 3433 3333 3333 e33f

w_s f8 []
2.5
00000000: 0000 0000 0000 0440

w_S f8 []
0.5
00000000: 0000 0000 0000 e03f

h f8 []
0.001
00000000: fca9 f1d2 4d62 503f

Delta_S f8 []
0.2
00000000: 9a99 9999 9999 c93f

theta f8 []
1.5707963267948966
00000000: 182d 4454 fb21 f93f

phi_angle f8 []
1.5707963267948966
00000000: 182d 4454 fb21 f93f
